…
_type='multistep', momentum=0.9, nBlocks=10, nChannels=16, nScales=3, nesterov=True, num_classes=10, optimizer='sgd', patience=0, print_freq=10, prune='max', reduction=0.5, resume=False, save='/ssd3/zhangh/results/debug/', seed=0, splits=['train', 'val', 'test'], start_epoch=0, step=2, stepmode='even', trainer='train', use_valid=True, weight_decay=0.0001, workers=16)
model:
DataParallel(
  (module): MSDNet(
    (blocks): ModuleList(
      (0): Sequential(
        (0): MSDNFirstLayer(
          (layers): ModuleList(
            (0): ConvBasic(
              (net): Sequential(
                (0): Conv2d(3, 16, kernel_size=(3, 3), stride=(1, 1), padding=(1, 1), bias=False)
                (1): BatchNorm2d(16, eps=1e-05, momentum=0.1, affine=True, track_running_stats=True)
                (2): ReLU(inplace)
              )
            )
            (1): ConvBasic(
              (net): Sequential(
                (0): Conv2d(16, 32, kernel_size=(3, 3), stride=(2, 2), padding=(1, 1), bias=False)
                (1): BatchNorm2d(32, eps=1e-05, momentum=0.1, affine=True, track_running_stats=True)
                (2): ReLU(inplace)
              )
            )
            (2): ConvBasic(
              (net): Sequential(
                (0): Conv2d(32, 64, kernel_size=(3, 3), stride=(2, 2), padding=(1, 1), bias=False)
                (1): BatchNorm2d(64, eps=1e-05, momentum=0.1, affine=True, track_running_stats=True)
                (2): ReLU(inplace)
              )
            )
          )
        )
        (1): MSDNLayer(
          (layers): ModuleList(
            (0): ConvNormal(
              (conv_normal): ConvBN(
                (net): Sequential(
                  (0): Conv2d(16, 6, kernel_size=(1, 1), stride=(1, 1), bias=False)
                  (1): BatchNorm2d(6, eps=1e-05, momentum=0.1, affine=True, track_running_stats=True)
                  (2): ReLU(inplace)
                  (3): Conv2d(6, 6, kernel_size=(3, 3), stride=(1, 1), padding=(1, 1), bias=False)
                  (4): BatchNorm2d(6, eps=1e-05, momentum=0.1, affine=True, track_running_stats=True)
                  (5): ReLU(inplace)
                )
              )
            )
            (1): ConvDownNormal(
              (conv_down): ConvBN(
                (net): Sequential(
                  (0): Conv2d(16, 6, kernel_size=(1, 1), stride=(1, 1), bias=False)
                  (1): BatchNorm2d(6, eps=1e-05, momentum=0.1, affine=True, track_running_stats=True)
                  (2): ReLU(inplace)
                  (3): Conv2d(6, 6, kernel_size=(3, 3), stride=(2, 2), padding=(1, 1), bias=False)
                  (4): BatchNorm2d(6, eps=1e-05, momentum=0.1, affine=True, track_running_stats=True)
                  (5): ReLU(inplace)
                )
              )
              (conv_normal): ConvBN(
                (net): Sequential(
                  (0): Conv2d(32, 12, kernel_size=(1, 1), stride=(1, 1), bias=False)
                  (1): BatchNorm2d(12, eps=1e-05, momentum=0.1, affine=True, track_running_stats=True)
                  (2): ReLU(inplace)
                  (3): Conv2d(12, 6, kernel_size=(3, 3), stride=(1, 1), padding=(1, 1), bias=False)
                  (4): BatchNorm2d(6, eps=1e-05, momentum=0.1, affine=True, track_running_stats=True)
                  (5): ReLU(inplace)
                )
              )
            )
            (2): ConvDownNormal(
              (conv_down): ConvBN(
                (net): Sequential(
                  (0): Conv2d(32, 24, kernel_size=(1, 1), stride=(1, 1), bias=False)
                  (1): BatchNorm2d(24, eps=1e-05, momentum=0.1, affine=True, track_running_stats=True)
                  (2): ReLU(inplace)
                  (3): Conv2d(24, 12, kernel_size=(3, 3), stride=(2, 2), padding=(1, 1), bias=False)
                  (4): BatchNorm2d(12, eps=1e-05, momentum=0.1, affine=True, track_running_stats=True)
                  (5): ReLU(inplace)
                )
              )
              (conv_normal): ConvBN(
                (net): Sequential(
                  (0): Conv2d(64, 48, kernel_size=(1, 1), stride=(1, 1), bias=False)
                  (1): BatchNorm2d(48, eps=1e-05, momentum=0.1, affine=True, track_running_stats=True)
                  (2): ReLU(inplace)
                  (3): Conv2d(48, 12, kernel_size=(3, 3), stride=(1, 1), padding=(1, 1), bias=False)
                  (4): BatchNorm2d(12, eps=1e-05, momentum=0.1, affine=True, track_running_stats=True)
                  (5): ReLU(inplace)
                )
              )
            )
          )
        )
        (2): MSDNLayer(
          (layers): ModuleList(
            (0): ConvNormal(
              (conv_normal): ConvBN(
                (net): Sequential(
                  (0): Conv2d(22, 6, kernel_size=(1, 1), stride=(1, 1), bias=False)
                  (1): BatchNorm2d(6, eps=1e-05, momentum=0.1, affine=True, track_running_stats=True)
                  (2): ReLU(inplace)
                  (3): Conv2d(6, 6, kernel_size=(3, 3), stride=(1, 1), padding=(1, 1), bias=False)
                  (4): BatchNorm2d(6, eps=1e-05, momentum=0.1, affine=True, track_running_stats=True)
                  (5): ReLU(inplace)
                )
              )
            )
            (1): ConvDownNormal(
              (conv_down): ConvBN(
                (net): Sequential(
                  (0): Conv2d(22, 6, kernel_size=(1, 1), stride=(1, 1), bias=False)
                  (1): BatchNorm2d(6, eps=1e-05, momentum=0.1, affine=True, track_running_stats=True)
                  (2): ReLU(inplace)
                  (3): Conv2d(6, 6, kernel_size=(3, 3), stride=(2, 2), padding=(1, 1), bias=False)
                  (4): BatchNorm2d(6, eps=1e-05, momentum=0.1, affine=True, track_running_stats=True)
                  (5): ReLU(inplace)
                )
              )
              (conv_normal): ConvBN(
                (net): Sequential(
                  (0): Conv2d(44, 12, kernel_size=(1, 1), stride=(1, 1), bias=False)
                  (1): BatchNorm2d(12, eps=1e-05, momentum=0.1, affine=True, track_running_stats=True)
                  (2): ReLU(inplace)
                  (3): Conv2d(12, 6, kernel_size=(3, 3), stride=(1, 1), padding=(1, 1), bias=False)
                  (4): BatchNorm2d(6, eps=1e-05, momentum=0.1, affine=True, track_running_stats=True)
                  (5): ReLU(inplace)
                )
              )
            )
            (2): ConvDownNormal(
              (conv_down): ConvBN(
                (net): Sequential(
                  (0): Conv2d(44, 24, kernel_size=(1, 1), stride=(1, 1), bias=False)
                  (1): BatchNorm2d(24, eps=1e-05, momentum=0.1, affine=True, track_running_stats=True)
                  (2): ReLU(inplace)
                  (3): Conv2d(24, 12, kernel_size=(3, 3), stride=(2, 2), padding=(1, 1), bias=False)
                  (4): BatchNorm2d(12, eps=1e-05, momentum=0.1, affine=True, track_running_stats=True)
                  (5): ReLU(inplace)
                )
              )
              (conv_normal): ConvBN(
                (net): Sequential(
                  (0): Conv2d(88, 48, kernel_size=(1, 1), stride=(1, 1), bias=False)
                  (1): BatchNorm2d(48, eps=1e-05, momentum=0.1, affine=True, track_running_stats=True)
                  (2): ReLU(inplace)
                  (3): Conv2d(48, 12, kernel_size=(3, 3), stride=(1, 1), padding=(1, 1), bias=False)
                  (4): BatchNorm2d(12, eps=1e-05, momentum=0.1, affine=True, track_running_stats=True)
                  (5): ReLU(inplace)
                )
              )
            )
          )
        )
        (3): MSDNLayer(
          (layers): ModuleList(
            (0): ConvNormal(
              (conv_normal): ConvBN(
                (net): Sequential(
                  (0): Conv2d(28, 6, kernel_size=(1, 1), stride=(1, 1), bias=False)
                  (1): BatchNorm2d(6, eps=1e-05, momentum=0.1, affine=True, track_running_stats=True)
                  (2): ReLU(inplace)
                  (3): Conv2d(6, 6, kernel_size=(3, 3), stride=(1, 1), padding=(1, 1), bias=False)
                  (4): BatchNorm2d(6, eps=1e-05, momentum=0.1, affine=True, track_running_stats=True)
                  (5): ReLU(inplace)
                )
              )
            )
            (1): ConvDownNormal(
              (conv_down): ConvBN(
                (net): Sequential(
                  (0): Conv2d(28, 6, kernel_size=(1, 1), stride=(1, 1), bias=False)
                  (1): BatchNorm2d(6, eps=1e-05, momentum=0.1, affine=True, track_running_stats=True)
                  (2): ReLU(inplace)
                  (3): Conv2d(6, 6, kernel_size=(3, 3), stride=(2, 2), padding=(1, 1), bias=False)
                  (4): BatchNorm2d(6, eps=1e-05, momentum=0.1, affine=True, track_running_stats=True)
                  (5): ReLU(inplace)
                )
              )
              (conv_normal): ConvBN(
                (net): Sequential(
                  (0): Conv2d(56, 12, kernel_size=(1, 1), stride=(1, 1), bias=False)
                  (1): BatchNorm2d(12, eps=1e-05, momentum=0.1, affine=True, track_running_stats=True)
                  (2): ReLU(inplace)
                  (3): Conv2d(12, 6, kernel_size=(3, 3), stride=(1, 1), padding=(1, 1), bias=False)
                  (4): BatchNorm2d(6, eps=1e-05, momentum=0.1, affine=True, track_running_stats=True)
                  (5): ReLU(inplace)
                )
              )
            )
            (2): ConvDownNormal(
              (conv_down): ConvBN(
                (net): Sequential(
                  (0): Conv2d(56, 24, kernel_size=(1, 1), stride=(1, 1), bias=False)
                  (1): BatchNorm2d(24, eps=1e-05, momentum=0.1, affine=True, track_running_stats=True)
                  (2): ReLU(inplace)
                  (3): Conv2d(24, 12, kernel_size=(3, 3), stride=(2, 2), padding=(1, 1), bias=False)
                  (4): BatchNorm2d(12, eps=1e-05, momentum=0.1, affine=True, track_running_stats=True)
                  (5): ReLU(inplace)
                )
              )
              (conv_normal): ConvBN(
                (net): Sequential(
                  (0): Conv2d(112, 48, kernel_size=(1, 1), stride=(1, 1), bias=False)
                  (1): BatchNorm2d(48, eps=1e-05, momentum=0.1, affine=True, track_running_stats=True)
                  (2): ReLU(inplace)
                  (3): Conv2d(48, 12, kernel_size=(3, 3), stride=(1, 1), padding=(1, 1), bias=False)
                  (4): BatchNorm2d(12, eps=1e-05, momentum=0.1, affine=True, track_running_stats=True)
                  (5): ReLU(inplace)
                )
              )
            )
          )
        )
        (4): MSDNLayer(
          (layers): ModuleList(
            (0): ConvNormal(
              (conv_normal): ConvBN(
                (net): Sequential(
                  (0): Conv2d(34, 6, kernel_size=(1, 1), stride=(1, 1), bias=False)
                  (1): BatchNorm2d(6, eps=1e-05, momentum=0.1, affine=True, track_running_stats=True)
                  (2): ReLU(inplace)
                  (3): Conv2d(6, 6, kernel_size=(3, 3), stride=(1, 1), padding=(1, 1), bias=False)
                  (4): BatchNorm2d(6, eps=1e-05, momentum=0.1, affine=True, track_running_stats=True)
                  (5): ReLU(inplace)
                )
              )
            )
            (1): ConvDownNormal(
              (conv_down): ConvBN(
                (net): Sequential(
                  (0): Conv2d(34, 6, kernel_size=(1, 1), stride=(1, 1), bias=False)
                  (1): BatchNorm2d(6, eps=1e-05, momentum=0.1, affine=True, track_running_stats=True)
                  (2): ReLU(inplace)
                  (3): Conv2d(6, 6, kernel_size=(3, 3), stride=(2, 2), padding=(1, 1), bias=False)
                  (4): BatchNorm2d(6, eps=1e-05, momentum=0.1, affine=True, track_running_stats=True)
                  (5): ReLU(inplace)
                )
              )
              (conv_normal): ConvBN(
                (net): Sequential(
                  (0): Conv2d(68, 12, kernel_size=(1, 1), stride=(1, 1), bias=False)
                  (1): BatchNorm2d(12, eps=1e-05, momentum=0.1, affine=True, track_running_stats=True)
                  (2): ReLU(inplace)
                  (3): Conv2d(12, 6, kernel_size=(3, 3), stride=(1, 1), padding=(1, 1), bias=False)
                  (4): BatchNorm2d(6, eps=1e-05, momentum=0.1, affine=True, track_running_stats=True)
                  (5): ReLU(inplace)
                )
              )
            )
            (2): ConvDownNormal(
              (conv_down): ConvBN(
                (net): Sequential(
                  (0): Conv2d(68, 24, kernel_size=(1, 1), stride=(1, 1), bias=False)
                  (1): BatchNorm2d(24, eps=1e-05, momentum=0.1, affine=True, track_running_stats=True)
                  (2): ReLU(inplace)
                  (3): Conv2d(24, 12, kernel_size=(3, 3), stride=(2, 2), padding=(1, 1), bias=False)
                  (4): BatchNorm2d(12, eps=1e-05, momentum=0.1, affine=True, track_running_stats=True)
                  (5): ReLU(inplace)
                )
              )
              (conv_normal): ConvBN(
                (net): Sequential(
                  (0): Conv2d(136, 48, kernel_size=(1, 1), stride=(1, 1), bias=False)
                  (1): BatchNorm2d(48, eps=1e-05, momentum=0.1, affine=True, track_running_stats=True)
                  (2): ReLU(inplace)
                  (3): Conv2d(48, 12, kernel_size=(3, 3), stride=(1, 1), padding=(1, 1), bias=False)
                  (4): BatchNorm2d(12, eps=1e-05, momentum=0.1, affine=True, track_running_stats=True)
                  (5): ReLU(inplace)
                )
              )
            )
          )
        )
      )
      (1): Sequential(
        (0): MSDNLayer(
          (layers): ModuleList(
            (0): ConvNormal(
              (conv_normal): ConvBN(
                (net): Sequential(
                  (0): Conv2d(40, 6, kernel_size=(1, 1), stride=(1, 1), bias=False)
                  (1): BatchNorm2d(6, eps=1e-05, momentum=0.1, affine=True, track_running_stats=True)
                  (2): ReLU(inplace)
                  (3): Conv2d(6, 6, kernel_size=(3, 3), stride=(1, 1), padding=(1, 1), bias=False)
                  (4): BatchNorm2d(6, eps=1e-05, momentum=0.1, affine=True, track_running_stats=True)
                  (5): ReLU(inplace)
                )
              )
            )
            (1): ConvDownNormal(
              (conv_down): ConvBN(
                (net): Sequential(
                  (0): Conv2d(40, 6, kernel_size=(1, 1), stride=(1, 1), bias=False)
                  (1): BatchNorm2d(6, eps=1e-05, momentum=0.1, affine=True, track_running_stats=True)
                  (2): ReLU(inplace)
                  (3): Conv2d(6, 6, kernel_size=(3, 3), stride=(2, 2), padding=(1, 1), bias=False)
                  (4): BatchNorm2d(6, eps=1e-05, momentum=0.1, affine=True, track_running_stats=True)
                  (5): ReLU(inplace)
                )
              )
              (conv_normal): ConvBN(
                (net): Sequential(
                  (0): Conv2d(80, 12, kernel_size=(1, 1), stride=(1, 1), bias=False)
                  (1): BatchNorm2d(12, eps=1e-05, momentum=0.1, affine=True, track_running_stats=True)
                  (2): ReLU(inplace)
                  (3): Conv2d(12, 6, kernel_size=(3, 3), stride=(1, 1), padding=(1, 1), bias=False)
                  (4): BatchNorm2d(6, eps=1e-05, momentum=0.1, affine=True, track_running_stats=True)
                  (5): ReLU(inplace)
                )
              )
            )
            (2): ConvDownNormal(
              (conv_down): ConvBN(
                (net): Sequential(
                  (0): Conv2d(80, 24, kernel_size=(1, 1), stride=(1, 1), bias=False)
                  (1): BatchNorm2d(24, eps=1e-05, momentum=0.1, affine=True, track_running_stats=True)
                  (2): ReLU(inplace)
                  (3): Conv2d(24, 12, kernel_size=(3, 3), stride=(2, 2), padding=(1, 1), bias=False)
                  (4): BatchNorm2d(12, eps=1e-05, momentum=0.1, affine=True, track_running_stats=True)
                  (5): ReLU(inplace)
                )
              )
              (conv_normal): ConvBN(
                (net): Sequential(
                  (0): Conv2d(160, 48, kernel_size=(1, 1), stride=(1, 1), bias=False)
                  (1): BatchNorm2d(48, eps=1e-05, momentum=0.1, affine=True, track_running_stats=True)
                  (2): ReLU(inplace)
                  (3): Conv2d(48, 12, kernel_size=(3, 3), stride=(1, 1), padding=(1, 1), bias=False)
                  (4): BatchNorm2d(12, eps=1e-05, momentum=0.1, affine=True, track_running_stats=True)
                  (5): ReLU(inplace)
                )
              )
            )
          )
        )
        (1): MSDNLayer(
          (layers): ModuleList(
            (0): ConvNormal(
              (conv_normal): ConvBN(
                (net): Sequential(
                  (0): Conv2d(46, 6, kernel_size=(1, 1), stride=(1, 1), bias=False)
                  (1): BatchNorm2d(6, eps=1e-05, momentum=0.1, affine=True, track_running_stats=True)
                  (2): ReLU(inplace)
                  (3): Conv2d(6, 6, kernel_size=(3, 3), stride=(1, 1), padding=(1, 1), bias=False)
                  (4): BatchNorm2d(6, eps=1e-05, momentum=0.1, affine=True, track_running_stats=True)
                  (5): ReLU(inplace)
                )
              )
            )
            (1): ConvDownNormal(
              (conv_down): ConvBN(
                (net): Sequential(
                  (0): Conv2d(46, 6, kernel_size=(1, 1), stride=(1, 1), bias=False)
                  (1): BatchNorm2d(6, eps=1e-05, momentum=0.1, affine=True, track_running_stats=True)
                  (2): ReLU(inplace)
                  (3): Conv2d(6, 6, kernel_size=(3, 3), stride=(2, 2), padding=(1, 1), bias=False)
                  (4): BatchNorm2d(6, eps=1e-05, momentum=0.1, affine=True, track_running_stats=True)
                  (5): ReLU(inplace)
                )
              )
              (conv_normal): ConvBN(
                (net): Sequential(
                  (0): Conv2d(92, 12, kernel_size=(1, 1), stride=(1, 1), bias=False)
                  (1): BatchNorm2d(12, eps=1e-05, momentum=0.1, affine=True, track_running_stats=True)
                  (2): ReLU(inplace)
                  (3): Conv2d(12, 6, kernel_size=(3, 3), stride=(1, 1), padding=(1, 1), bias=False)
                  (4): BatchNorm2d(6, eps=1e-05, momentum=0.1, affine=True, track_running_stats=True)
                  (5): ReLU(inplace)
                )
              )
            )
            (2): ConvDownNormal(
              (conv_down): ConvBN(
                (net): Sequential(
                  (0): Conv2d(92, 24, kernel_size=(1, 1), stride=(1, 1), bias=False)
                  (1): BatchNorm2d(24, eps=1e-05, momentum=0.1, affine=True, track_running_stats=True)
                  (2): ReLU(inplace)
                  (3): Conv2d(24, 12, kernel_size=(3, 3), stride=(2, 2), padding=(1, 1), bias=False)
                  (4): BatchNorm2d(12, eps=1e-05, momentum=0.1, affine=True, track_running_stats=True)
                  (5): ReLU(inplace)
                )
              )
              (conv_normal): ConvBN(
                (net): Sequential(
                  (0): Conv2d(184, 48, kernel_size=(1, 1), stride=(1, 1), bias=False)
                  (1): BatchNorm2d(48, eps=1e-05, momentum=0.1, affine=True, track_running_stats=True)
                  (2): ReLU(inplace)
                  (3): Conv2d(48, 12, kernel_size=(3, 3), stride=(1, 1), padding=(1, 1), bias=False)
                  (4): BatchNorm2d(12, eps=1e-05, momentum=0.1, affine=True, track_running_stats=True)
                  (5): ReLU(inplace)
                )
              )
            )
          )
        )
      )
      (2): Sequential(
        (0): MSDNLayer(
          (layers): ModuleList(
            (0): ConvNormal(
              (conv_normal): ConvBN(
                (net): Sequential(
                  (0): Conv2d(52, 6, kernel_size=(1, 1), stride=(1, 1), bias=False)
                  (1): BatchNorm2d(6, eps=1e-05, momentum=0.1, affine=True, track_running_stats=True)
                  (2): ReLU(inplace)
                  (3): Conv2d(6, 6, kernel_size=(3, 3), stride=(1, 1), padding=(1, 1), bias=False)
                  (4): BatchNorm2d(6, eps=1e-05, momentum=0.1, affine=True, track_running_stats=True)
                  (5): ReLU(inplace)
                )
              )
            )
            (1): ConvDownNormal(
              (conv_down): ConvBN(
                (net): Sequential(
                  (0): Conv2d(52, 6, kernel_size=(1, 1), stride=(1, 1), bias=False)
                  (1): BatchNorm2d(6, eps=1e-05, momentum=0.1, affine=True, track_running_stats=True)
                  (2): ReLU(inplace)
                  (3): Conv2d(6, 6, kernel_size=(3, 3), stride=(2, 2), padding=(1, 1), bias=False)
                  (4): BatchNorm2d(6, eps=1e-05, momentum=0.1, affine=True, track_running_stats=True)
                  (5): ReLU(inplace)
                )
              )
              (conv_normal): ConvBN(
                (net): Sequential(
                  (0): Conv2d(104, 12, kernel_size=(1, 1), stride=(1, 1), bias=False)
                  (1): BatchNorm2d(12, eps=1e-05, momentum=0.1, affine=True, track_running_stats=True)
                  (2): ReLU(inplace)
                  (3): Conv2d(12, 6, kernel_size=(3, 3), stride=(1, 1), padding=(1, 1), bias=False)
                  (4): BatchNorm2d(6, eps=1e-05, momentum=0.1, affine=True, track_running_stats=True)
                  (5): ReLU(inplace)
                )
              )
            )
            (2): ConvDownNormal(
              (conv_down): ConvBN(
                (net): Sequential(
                  (0): Conv2d(104, 24, kernel_size=(1, 1), stride=(1, 1), bias=False)
                  (1): BatchNorm2d(24, eps=1e-05, momentum=0.1, affine=True, track_running_stats=True)
                  (2): ReLU(inplace)
                  (3): Conv2d(24, 12, kernel_size=(3, 3), stride=(2, 2), padding=(1, 1), bias=False)
                  (4): BatchNorm2d(12, eps=1e-05, momentum=0.1, affine=True, track_running_stats=True)
                  (5): ReLU(inplace)
                )
              )
              (conv_normal): ConvBN(
                (net): Sequential(
                  (0): Conv2d(208, 48, kernel_size=(1, 1), stride=(1, 1), bias=False)
                  (1): BatchNorm2d(48, eps=1e-05, momentum=0.1, affine=True, track_running_stats=True)
                  (2): ReLU(inplace)
                  (3): Conv2d(48, 12, kernel_size=(3, 3), stride=(1, 1), padding=(1, 1), bias=False)
                  (4): BatchNorm2d(12, eps=1e-05, momentum=0.1, affine=True, track_running_stats=True)
                  (5): ReLU(inplace)
                )
              )
            )
          )
        )
        (1): MSDNLayer(
          (layers): ModuleList(
            (0): ConvNormal(
              (conv_normal): ConvBN(
                (net): Sequential(
                  (0): Conv2d(58, 6, kernel_size=(1, 1), stride=(1, 1), bias=False)
                  (1): BatchNorm2d(6, eps=1e-05, momentum=0.1, affine=True, track_running_stats=True)
                  (2): ReLU(inplace)
                  (3): Conv2d(6, 6, kernel_size=(3, 3), stride=(1, 1), padding=(1, 1), bias=False)
                  (4): BatchNorm2d(6, eps=1e-05, momentum=0.1, affine=True, track_running_stats=True)
                  (5): ReLU(inplace)
                )
              )
            )
            (1): ConvDownNormal(
              (conv_down): ConvBN(
                (net): Sequential(
                  (0): Conv2d(58, 6, kernel_size=(1, 1), stride=(1, 1), bias=False)
                  (1): BatchNorm2d(6, eps=1e-05, momentum=0.1, affine=True, track_running_stats=True)
                  (2): ReLU(inplace)
                  (3): Conv2d(6, 6, kernel_size=(3, 3), stride=(2, 2), padding=(1, 1), bias=False)
                  (4): BatchNorm2d(6, eps=1e-05, momentum=0.1, affine=True, track_running_stats=True)
                  (5): ReLU(inplace)
                )
              )
              (conv_normal): ConvBN(
                (net): Sequential(
                  (0): Conv2d(116, 12, kernel_size=(1, 1), stride=(1, 1), bias=False)
                  (1): BatchNorm2d(12, eps=1e-05, momentum=0.1, affine=True, track_running_stats=True)
                  (2): ReLU(inplace)
                  (3): Conv2d(12, 6, kernel_size=(3, 3), stride=(1, 1), padding=(1, 1), bias=False)
                  (4): BatchNorm2d(6, eps=1e-05, momentum=0.1, affine=True, track_running_stats=True)
                  (5): ReLU(inplace)
                )
              )
            )
            (2): ConvDownNormal(
              (conv_down): ConvBN(
                (net): Sequential(
                  (0): Conv2d(116, 24, kernel_size=(1, 1), stride=(1, 1), bias=False)
                  (1): BatchNorm2d(24, eps=1e-05, momentum=0.1, affine=True, track_running_stats=True)
                  (2): ReLU(inplace)
                  (3): Conv2d(24, 12, kernel_size=(3, 3), stride=(2, 2), padding=(1, 1), bias=False)
                  (4): BatchNorm2d(12, eps=1e-05, momentum=0.1, affine=True, track_running_stats=True)
                  (5): ReLU(inplace)
                )
              )
              (conv_normal): ConvBN(
                (net): Sequential(
                  (0): Conv2d(232, 48, kernel_size=(1, 1), stride=(1, 1), bias=False)
                  (1): BatchNorm2d(48, eps=1e-05, momentum=0.1, affine=True, track_running_stats=True)
                  (2): ReLU(inplace)
                  (3): Conv2d(48, 12, kernel_size=(3, 3), stride=(1, 1), padding=(1, 1), bias=False)
                  (4): BatchNorm2d(12, eps=1e-05, momentum=0.1, affine=True, track_running_stats=True)
                  (5): ReLU(inplace)
                )
              )
            )
          )
        )
      )
      (3): Sequential(
        (0): MSDNLayer(
          (layers): ModuleList(
            (0): ConvDownNormal(
              (conv_down): ConvBN(
                (net): Sequential(
                  (0): Conv2d(64, 6, kernel_size=(1, 1), stride=(1, 1), bias=False)
                  (1): BatchNorm2d(6, eps=1e-05, momentum=0.1, affine=True, track_running_stats=True)
                  (2): ReLU(inplace)
                  (3): Conv2d(6, 6, kernel_size=(3, 3), stride=(2, 2), padding=(1, 1), bias=False)
                  (4): BatchNorm2d(6, eps=1e-05, momentum=0.1, affine=True, track_running_stats=True)
                  (5): ReLU(inplace)
                )
              )
              (conv_normal): ConvBN(
                (net): Sequential(
                  (0): Conv2d(128, 12, kernel_size=(1, 1), stride=(1, 1), bias=False)
                  (1): BatchNorm2d(12, eps=1e-05, momentum=0.1, affine=True, track_running_stats=True)
                  (2): ReLU(inplace)
                  (3): Conv2d(12, 6, kernel_size=(3, 3), stride=(1, 1), padding=(1, 1), bias=False)
                  (4): BatchNorm2d(6, eps=1e-05, momentum=0.1, affine=True, track_running_stats=True)
                  (5): ReLU(inplace)
                )
              )
            )
            (1): ConvDownNormal(
              (conv_down): ConvBN(
                (net): Sequential(
                  (0): Conv2d(128, 24, kernel_size=(1, 1), stride=(1, 1), bias=False)
                  (1): BatchNorm2d(24, eps=1e-05, momentum=0.1, affine=True, track_running_stats=True)
                  (2): ReLU(inplace)
                  (3): Conv2d(24, 12, kernel_size=(3, 3), stride=(2, 2), padding=(1, 1), bias=False)
                  (4): BatchNorm2d(12, eps=1e-05, momentum=0.1, affine=True, track_running_stats=True)
                  (5): ReLU(inplace)
                )
              )
              (conv_normal): ConvBN(
                (net): Sequential(
                  (0): Conv2d(256, 48, kernel_size=(1, 1), stride=(1, 1), bias=False)
                  (1): BatchNorm2d(48, eps=1e-05, momentum=0.1, affine=True, track_running_stats=True)
                  (2): ReLU(inplace)
                  (3): Conv2d(48, 12, kernel_size=(3, 3), stride=(1, 1), padding=(1, 1), bias=False)
                  (4): BatchNorm2d(12, eps=1e-05, momentum=0.1, affine=True, track_running_stats=True)
                  (5): ReLU(inplace)
                )
              )
            )
          )
        )
        (1): ParallelModule(
          (m): ModuleList(
            (0): ConvBasic(
              (net): Sequential(
                (0): Conv2d(140, 70, kernel_size=(1, 1), stride=(1, 1), bias=False)
                (1): BatchNorm2d(70, eps=1e-05, momentum=0.1, affine=True, track_running_stats=True)
                (2): ReLU(inplace)
              )
            )
            (1): ConvBasic(
              (net): Sequential(
                (0): Conv2d(280, 140, kernel_size=(1, 1), stride=(1, 1), bias=False)
                (1): BatchNorm2d(140, eps=1e-05, momentum=0.1, affine=True, track_running_stats=True)
                (2): ReLU(inplace)
              )
            )
          )
        )
        (2): MSDNLayer(
          (layers): ModuleList(
            (0): ConvNormal(
              (conv_normal): ConvBN(
                (net): Sequential(
                  (0): Conv2d(70, 24, kernel_size=(1, 1), stride=(1, 1), bias=False)
                  (1): BatchNorm2d(24, eps=1e-05, momentum=0.1, affine=True, track_running_stats=True)
                  (2): ReLU(inplace)
                  (3): Conv2d(24, 12, kernel_size=(3, 3), stride=(1, 1), padding=(1, 1), bias=False)
                  (4): BatchNorm2d(12, eps=1e-05, momentum=0.1, affine=True, track_running_stats=True)
                  (5): ReLU(inplace)
                )
              )
            )
            (1): ConvDownNormal(
              (conv_down): ConvBN(
                (net): Sequential(
                  (0): Conv2d(70, 24, kernel_size=(1, 1), stride=(1, 1), bias=False)
                  (1): BatchNorm2d(24, eps=1e-05, momentum=0.1, affine=True, track_running_stats=True)
                  (2): ReLU(inplace)
                  (3): Conv2d(24, 12, kernel_size=(3, 3), stride=(2, 2), padding=(1, 1), bias=False)
                  (4): BatchNorm2d(12, eps=1e-05, momentum=0.1, affine=True, track_running_stats=True)
                  (5): ReLU(inplace)
                )
              )
              (conv_normal): ConvBN(
                (net): Sequential(
                  (0): Conv2d(140, 48, kernel_size=(1, 1), stride=(1, 1), bias=False)
                  (1): BatchNorm2d(48, eps=1e-05, momentum=0.1, affine=True, track_running_stats=True)
                  (2): ReLU(inplace)
                  (3): Conv2d(48, 12, kernel_size=(3, 3), stride=(1, 1), padding=(1, 1), bias=False)
                  (4): BatchNorm2d(12, eps=1e-05, momentum=0.1, affine=True, track_running_stats=True)
                  (5): ReLU(inplace)
                )
              )
            )
          )
        )
      )
      (4): Sequential(
        (0): MSDNLayer(
          (layers): ModuleList(
            (0): ConvNormal(
              (conv_normal): ConvBN(
                (net): Sequential(
                  (0): Conv2d(82, 24, kernel_size=(1, 1), stride=(1, 1), bias=False)
                  (1): BatchNorm2d(24, eps=1e-05, momentum=0.1, affine=True, track_running_stats=True)
                  (2): ReLU(inplace)
                  (3): Conv2d(24, 12, kernel_size=(3, 3), stride=(1, 1), padding=(1, 1), bias=False)
                  (4): BatchNorm2d(12, eps=1e-05, momentum=0.1, affine=True, track_running_stats=True)
                  (5): ReLU(inplace)
                )
              )
            )
            (1): ConvDownNormal(
              (conv_down): ConvBN(
                (net): Sequential(
                  (0): Conv2d(82, 24, kernel_size=(1, 1), stride=(1, 1), bias=False)
                  (1): BatchNorm2d(24, eps=1e-05, momentum=0.1, affine=True, track_running_stats=True)
                  (2): ReLU(inplace)
                  (3): Conv2d(24, 12, kernel_size=(3, 3), stride=(2, 2), padding=(1, 1), bias=False)
                  (4): BatchNorm2d(12, eps=1e-05, momentum=0.1, affine=True, track_running_stats=True)
                  (5): ReLU(inplace)
                )
              )
              (conv_normal): ConvBN(
                (net): Sequential(
                  (0): Conv2d(164, 48, kernel_size=(1, 1), stride=(1, 1), bias=False)
                  (1): BatchNorm2d(48, eps=1e-05, momentum=0.1, affine=True, track_running_stats=True)
                  (2): ReLU(inplace)
                  (3): Conv2d(48, 12, kernel_size=(3, 3), stride=(1, 1), padding=(1, 1), bias=False)
                  (4): BatchNorm2d(12, eps=1e-05, momentum=0.1, affine=True, track_running_stats=True)
                  (5): ReLU(inplace)
                )
              )
            )
          )
        )
        (1): MSDNLayer(
          (layers): ModuleList(
            (0): ConvNormal(
              (conv_normal): ConvBN(
                (net): Sequential(
                  (0): Conv2d(94, 24, kernel_size=(1, 1), stride=(1, 1), bias=False)
                  (1): BatchNorm2d(24, eps=1e-05, momentum=0.1, affine=True, track_running_stats=True)
                  (2): ReLU(inplace)
                  (3): Conv2d(24, 12, kernel_size=(3, 3), stride=(1, 1), padding=(1, 1), bias=False)
                  (4): BatchNorm2d(12, eps=1e-05, momentum=0.1, affine=True, track_running_stats=True)
                  (5): ReLU(inplace)
                )
              )
            )
            (1): ConvDownNormal(
              (conv_down): ConvBN(
                (net): Sequential(
                  (0): Conv2d(94, 24, kernel_size=(1, 1), stride=(1, 1), bias=False)
                  (1): BatchNorm2d(24, eps=1e-05, momentum=0.1, affine=True, track_running_stats=True)
                  (2): ReLU(inplace)
                  (3): Conv2d(24, 12, kernel_size=(3, 3), stride=(2, 2), padding=(1, 1), bias=False)
                  (4): BatchNorm2d(12, eps=1e-05, momentum=0.1, affine=True, track_running_stats=True)
                  (5): ReLU(inplace)
                )
              )
              (conv_normal): ConvBN(
                (net): Sequential(
                  (0): Conv2d(188, 48, kernel_size=(1, 1), stride=(1, 1), bias=False)
                  (1): BatchNorm2d(48, eps=1e-05, momentum=0.1, affine=True, track_running_stats=True)
                  (2): ReLU(inplace)
                  (3): Conv2d(48, 12, kernel_size=(3, 3), stride=(1, 1), padding=(1, 1), bias=False)
                  (4): BatchNorm2d(12, eps=1e-05, momentum=0.1, affine=True, track_running_stats=True)
                  (5): ReLU(inplace)
                )
              )
            )
          )
        )
      )
      (5): Sequential(
        (0): MSDNLayer(
          (layers): ModuleList(
            (0): ConvNormal(
              (conv_normal): ConvBN(
                (net): Sequential(
                  (0): Conv2d(106, 24, kernel_size=(1, 1), stride=(1, 1), bias=False)
                  (1): BatchNorm2d(24, eps=1e-05, momentum=0.1, affine=True, track_running_stats=True)
                  (2): ReLU(inplace)
                  (3): Conv2d(24, 12, kernel_size=(3, 3), stride=(1, 1), padding=(1, 1), bias=False)
                  (4): BatchNorm2d(12, eps=1e-05, momentum=0.1, affine=True, track_running_stats=True)
                  (5): ReLU(inplace)
                )
              )
            )
            (1): ConvDownNormal(
              (conv_down): ConvBN(
                (net): Sequential(
                  (0): Conv2d(106, 24, kernel_size=(1, 1), stride=(1, 1), bias=False)
                  (1): BatchNorm2d(24, eps=1e-05, momentum=0.1, affine=True, track_running_stats=True)
                  (2): ReLU(inplace)
                  (3): Conv2d(24, 12, kernel_size=(3, 3), stride=(2, 2), padding=(1, 1), bias=False)
                  (4): BatchNorm2d(12, eps=1e-05, momentum=0.1, affine=True, track_running_stats=True)
                  (5): ReLU(inplace)
                )
              )
              (conv_normal): ConvBN(
                (net): Sequential(
                  (0): Conv2d(212, 48, kernel_size=(1, 1), stride=(1, 1), bias=False)
                  (1): BatchNorm2d(48, eps=1e-05, momentum=0.1, affine=True, track_running_stats=True)
                  (2): ReLU(inplace)
                  (3): Conv2d(48, 12, kernel_size=(3, 3), stride=(1, 1), padding=(1, 1), bias=False)
                  (4): BatchNorm2d(12, eps=1e-05, momentum=0.1, affine=True, track_running_stats=True)
                  (5): ReLU(inplace)
                )
              )
            )
          )
        )
        (1): MSDNLayer(
          (layers): ModuleList(
            (0): ConvNormal(
              (conv_normal): ConvBN(
                (net): Sequential(
                  (0): Conv2d(118, 24, kernel_size=(1, 1), stride=(1, 1), bias=False)
                  (1): BatchNorm2d(24, eps=1e-05, momentum=0.1, affine=True, track_running_stats=True)
                  (2): ReLU(inplace)
                  (3): Conv2d(24, 12, kernel_size=(3, 3), stride=(1, 1), padding=(1, 1), bias=False)
                  (4): BatchNorm2d(12, eps=1e-05, momentum=0.1, affine=True, track_running_stats=True)
                  (5): ReLU(inplace)
                )
              )
            )
            (1): ConvDownNormal(
              (conv_down): ConvBN(
                (net): Sequential(
                  (0): Conv2d(118, 24, kernel_size=(1, 1), stride=(1, 1), bias=False)
                  (1): BatchNorm2d(24, eps=1e-05, momentum=0.1, affine=True, track_running_stats=True)
                  (2): ReLU(inplace)
                  (3): Conv2d(24, 12, kernel_size=(3, 3), stride=(2, 2), padding=(1, 1), bias=False)
                  (4): BatchNorm2d(12, eps=1e-05, momentum=0.1, affine=True, track_running_stats=True)
                  (5): ReLU(inplace)
                )
              )
              (conv_normal): ConvBN(
                (net): Sequential(
                  (0): Conv2d(236, 48, kernel_size=(1, 1), stride=(1, 1), bias=False)
                  (1): BatchNorm2d(48, eps=1e-05, momentum=0.1, affine=True, track_running_stats=True)
                  (2): ReLU(inplace)
                  (3): Conv2d(48, 12, kernel_size=(3, 3), stride=(1, 1), padding=(1, 1), bias=False)
                  (4): BatchNorm2d(12, eps=1e-05, momentum=0.1, affine=True, track_running_stats=True)
                  (5): ReLU(inplace)
                )
              )
            )
          )
        )
      )
      (6): Sequential(
        (0): MSDNLayer(
          (layers): ModuleList(
            (0): ConvNormal(
              (conv_normal): ConvBN(
                (net): Sequential(
                  (0): Conv2d(130, 24, kernel_size=(1, 1), stride=(1, 1), bias=False)
                  (1): BatchNorm2d(24, eps=1e-05, momentum=0.1, affine=True, track_running_stats=True)
                  (2): ReLU(inplace)
                  (3): Conv2d(24, 12, kernel_size=(3, 3), stride=(1, 1), padding=(1, 1), bias=False)
                  (4): BatchNorm2d(12, eps=1e-05, momentum=0.1, affine=True, track_running_stats=True)
                  (5): ReLU(inplace)
                )
              )
            )
            (1): ConvDownNormal(
              (conv_down): ConvBN(
                (net): Sequential(
                  (0): Conv2d(130, 24, kernel_size=(1, 1), stride=(1, 1), bias=False)
                  (1): BatchNorm2d(24, eps=1e-05, momentum=0.1, affine=True, track_running_stats=True)
                  (2): ReLU(inplace)
                  (3): Conv2d(24, 12, kernel_size=(3, 3), stride=(2, 2), padding=(1, 1), bias=False)
                  (4): BatchNorm2d(12, eps=1e-05, momentum=0.1, affine=True, track_running_stats=True)
                  (5): ReLU(inplace)
                )
              )
              (conv_normal): ConvBN(
                (net): Sequential(
                  (0): Conv2d(260, 48, kernel_size=(1, 1), stride=(1, 1), bias=False)
                  (1): BatchNorm2d(48, eps=1e-05, momentum=0.1, affine=True, track_running_stats=True)
                  (2): ReLU(inplace)
                  (3): Conv2d(48, 12, kernel_size=(3, 3), stride=(1, 1), padding=(1, 1), bias=False)
                  (4): BatchNorm2d(12, eps=1e-05, momentum=0.1, affine=True, track_running_stats=True)
                  (5): ReLU(inplace)
                )
              )
            )
          )
        )
        (1): MSDNLayer(
          (layers): ModuleList(
            (0): ConvNormal(
              (conv_normal): ConvBN(
                (net): Sequential(
                  (0): Conv2d(142, 24, kernel_size=(1, 1), stride=(1, 1), bias=False)
                  (1): BatchNorm2d(24, eps=1e-05, momentum=0.1, affine=True, track_running_stats=True)
                  (2): ReLU(inplace)
                  (3): Conv2d(24, 12, kernel_size=(3, 3), stride=(1, 1), padding=(1, 1), bias=False)
                  (4): BatchNorm2d(12, eps=1e-05, momentum=0.1, affine=True, track_running_stats=True)
                  (5): ReLU(inplace)
                )
              )
            )
            (1): ConvDownNormal(
              (conv_down): ConvBN(
                (net): Sequential(
                  (0): Conv2d(142, 24, kernel_size=(1, 1), stride=(1, 1), bias=False)
                  (1): BatchNorm2d(24, eps=1e-05, momentum=0.1, affine=True, track_running_stats=True)
                  (2): ReLU(inplace)
                  (3): Conv2d(24, 12, kernel_size=(3, 3), stride=(2, 2), padding=(1, 1), bias=False)
                  (4): BatchNorm2d(12, eps=1e-05, momentum=0.1, affine=True, track_running_stats=True)
                  (5): ReLU(inplace)
                )
              )
              (conv_normal): ConvBN(
                (net): Sequential(
                  (0): Conv2d(284, 48, kernel_size=(1, 1), stride=(1, 1), bias=False)
                  (1): BatchNorm2d(48, eps=1e-05, momentum=0.1, affine=True, track_running_stats=True)
                  (2): ReLU(inplace)
                  (3): Conv2d(48, 12, kernel_size=(3, 3), stride=(1, 1), padding=(1, 1), bias=False)
                  (4): BatchNorm2d(12, eps=1e-05, momentum=0.1, affine=True, track_running_stats=True)
                  (5): ReLU(inplace)
                )
              )
            )
          )
        )
      )
      (7): Sequential(
        (0): MSDNLayer(
          (layers): ModuleList(
            (0): ConvDownNormal(
              (conv_down): ConvBN(
                (net): Sequential(
                  (0): Conv2d(154, 24, kernel_size=(1, 1), stride=(1, 1), bias=False)
                  (1): BatchNorm2d(24, eps=1e-05, momentum=0.1, affine=True, track_running_stats=True)
                  (2): ReLU(inplace)
                  (3): Conv2d(24, 12, kernel_size=(3, 3), stride=(2, 2), padding=(1, 1), bias=False)
                  (4): BatchNorm2d(12, eps=1e-05, momentum=0.1, affine=True, track_running_stats=True)
                  (5): ReLU(inplace)
                )
              )
              (conv_normal): ConvBN(
                (net): Sequential(
                  (0): Conv2d(308, 48, kernel_size=(1, 1), stride=(1, 1), bias=False)
                  (1): BatchNorm2d(48, eps=1e-05, momentum=0.1, affine=True, track_running_stats=True)
                  (2): ReLU(inplace)
                  (3): Conv2d(48, 12, kernel_size=(3, 3), stride=(1, 1), padding=(1, 1), bias=False)
                  (4): BatchNorm2d(12, eps=1e-05, momentum=0.1, affine=True, track_running_stats=True)
                  (5): ReLU(inplace)
                )
              )
            )
          )
        )
        (1): ParallelModule(
          (m): ModuleList(
            (0): ConvBasic(
              (net): Sequential(
                (0): Conv2d(332, 164, kernel_size=(1, 1), stride=(1, 1), bias=False)
                (1): BatchNorm2d(164, eps=1e-05, momentum=0.1, affine=True, track_running_stats=True)
                (2): ReLU(inplace)
              )
            )
          )
        )
        (2): MSDNLayer(
          (layers): ModuleList(
            (0): ConvNormal(
              (conv_normal): ConvBN(
                (net): Sequential(
                  (0): Conv2d(164, 96, kernel_size=(1, 1), stride=(1, 1), bias=False)
                  (1): BatchNorm2d(96, eps=1e-05, momentum=0.1, affine=True, track_running_stats=True)
                  (2): ReLU(inplace)
                  (3): Conv2d(96, 24, kernel_size=(3, 3), stride=(1, 1), padding=(1, 1), bias=False)
                  (4): BatchNorm2d(24, eps=1e-05, momentum=0.1, affine=True, track_running_stats=True)
                  (5): ReLU(inplace)
                )
              )
            )
          )
        )
      )
      (8): Sequential(
        (0): MSDNLayer(
          (layers): ModuleList(
            (0): ConvNormal(
              (conv_normal): ConvBN(
                (net): Sequential(
                  (0): Conv2d(188, 96, kernel_size=(1, 1), stride=(1, 1), bias=False)
                  (1): BatchNorm2d(96, eps=1e-05, momentum=0.1, affine=True, track_running_stats=True)
                  (2): ReLU(inplace)
                  (3): Conv2d(96, 24, kernel_size=(3, 3), stride=(1, 1), padding=(1, 1), bias=False)
                  (4): BatchNorm2d(24, eps=1e-05, momentum=0.1, affine=True, track_running_stats=True)
                  (5): ReLU(inplace)
                )
              )
            )
          )
        )
        (1): MSDNLayer(
          (layers): ModuleList(
            (0): ConvNormal(
              (conv_normal): ConvBN(
                (net): Sequential(
                  (0): Conv2d(212, 96, kernel_size=(1, 1), stride=(1, 1), bias=False)
                  (1): BatchNorm2d(96, eps=1e-05, momentum=0.1, affine=True, track_running_stats=True)
                  (2): ReLU(inplace)
                  (3): Conv2d(96, 24, kernel_size=(3, 3), stride=(1, 1), padding=(1, 1), bias=False)
                  (4): BatchNorm2d(24, eps=1e-05, momentum=0.1, affine=True, track_running_stats=True)
                  (5): ReLU(inplace)
                )
              )
            )
          )
        )
      )
      (9): Sequential(
        (0): MSDNLayer(
          (layers): ModuleList(
            (0): ConvNormal(
              (conv_normal): ConvBN(
                (net): Sequential(
                  (0): Conv2d(236, 96, kernel_size=(1, 1), stride=(1, 1), bias=False)
                  (1): BatchNorm2d(96, eps=1e-05, momentum=0.1, affine=True, track_running_stats=True)
                  (2): ReLU(inplace)
                  (3): Conv2d(96, 24, kernel_size=(3, 3), stride=(1, 1), padding=(1, 1), bias=False)
                  (4): BatchNorm2d(24, eps=1e-05, momentum=0.1, affine=True, track_running_stats=True)
                  (5): ReLU(inplace)
                )
              )
            )
          )
        )
        (1): MSDNLayer(
          (layers): ModuleList(
            (0): ConvNormal(
              (conv_normal): ConvBN(
                (net): Sequential(
                  (0): Conv2d(260, 96, kernel_size=(1, 1), stride=(1, 1), bias=False)
                  (1): BatchNorm2d(96, eps=1e-05, momentum=0.1, affine=True, track_running_stats=True)
                  (2): ReLU(inplace)
                  (3): Conv2d(96, 24, kernel_size=(3, 3), stride=(1, 1), padding=(1, 1), bias=False)
                  (4): BatchNorm2d(24, eps=1e-05, momentum=0.1, affine=True, track_running_stats=True)
                  (5): ReLU(inplace)
                )
              )
            )
          )
        )
      )
    )
    (classifier): ModuleList(
      (0): ClassifierModule(
        (m): Sequential(
          (0): ConvBasic(
            (net): Sequential(
              (0): Conv2d(160, 128, kernel_size=(3, 3), stride=(2, 2), padding=(1, 1), bias=False)
              (1): BatchNorm2d(128, eps=1e-05, momentum=0.1, affine=True, track_running_stats=True)
              (2): ReLU(inplace)
            )
          )
          (1): ConvBasic(
            (net): Sequential(
              (0): Conv2d(128, 128, kernel_size=(3, 3), stride=(2, 2), padding=(1, 1), bias=False)
              (1): BatchNorm2d(128, eps=1e-05, momentum=0.1, affine=True, track_running_stats=True)
              (2): ReLU(inplace)
            )
          )
          (2): AvgPool2d(kernel_size=2, stride=2, padding=0)
        )
        (linear): Linear(in_features=128, out_features=10, bias=True)
      )
      (1): ClassifierModule(
        (m): Sequential(
          (0): ConvBasic(
            (net): Sequential(
              (0): Conv2d(208, 128, kernel_size=(3, 3), stride=(2, 2), padding=(1, 1), bias=False)
              (1): BatchNorm2d(128, eps=1e-05, momentum=0.1, affine=True, track_running_stats=True)
              (2): ReLU(inplace)
            )
          )
          (1): ConvBasic(
            (net): Sequential(
              (0): Conv2d(128, 128, kernel_size=(3, 3), stride=(2, 2), padding=(1, 1), bias=False)
              (1): BatchNorm2d(128, eps=1e-05, momentum=0.1, affine=True, track_running_stats=True)
              (2): ReLU(inplace)
            )
          )
          (2): AvgPool2d(kernel_size=2, stride=2, padding=0)
        )
        (linear): Linear(in_features=128, out_features=10, bias=True)
      )
      (2): ClassifierModule(
        (m): Sequential(
          (0): ConvBasic(
            (net): Sequential(
              (0): Conv2d(256, 128, kernel_size=(3, 3), stride=(2, 2), padding=(1, 1), bias=False)
              (1): BatchNorm2d(128, eps=1e-05, momentum=0.1, affine=True, track_running_stats=True)
              (2): ReLU(inplace)
            )
          )
          (1): ConvBasic(
            (net): Sequential(
              (0): Conv2d(128, 128, kernel_size=(3, 3), stride=(2, 2), padding=(1, 1), bias=False)
              (1): BatchNorm2d(128, eps=1e-05, momentum=0.1, affine=True, track_running_stats=True)
              (2): ReLU(inplace)
            )
          )
          (2): AvgPool2d(kernel_size=2, stride=2, padding=0)
        )
        (linear): Linear(in_features=128, out_features=10, bias=True)
      )
      (3): ClassifierModule(
        (m): Sequential(
          (0): ConvBasic(
            (net): Sequential(
              (0): Conv2d(164, 128, kernel_size=(3, 3), stride=(2, 2), padding=(1, 1), bias=False)
              (1): BatchNorm2d(128, eps=1e-05, momentum=0.1, affine=True, track_running_stats=True)
              (2): ReLU(inplace)
            )
          )
          (1): ConvBasic(
            (net): Sequential(
              (0): Conv2d(128, 128, kernel_size=(3, 3), stride=(2, 2), padding=(1, 1), bias=False)
              (1): BatchNorm2d(128, eps=1e-05, momentum=0.1, affine=True, track_running_stats=True)
              (2): ReLU(inplace)
            )
          )
          (2): AvgPool2d(kernel_size=2, stride=2, padding=0)
        )
        (linear): Linear(in_features=128, out_features=10, bias=True)
      )
      (4): ClassifierModule(
        (m): Sequential(
          (0): ConvBasic(
            (net): Sequential(
              (0): Conv2d(212, 128, kernel_size=(3, 3), stride=(2, 2), padding=(1, 1), bias=False)
              (1): BatchNorm2d(128, eps=1e-05, momentum=0.1, affine=True, track_running_stats=True)
              (2): ReLU(inplace)
            )
          )
          (1): ConvBasic(
            (net): Sequential(
              (0): Conv2d(128, 128, kernel_size=(3, 3), stride=(2, 2), padding=(1, 1), bias=False)
              (1): BatchNorm2d(128, eps=1e-05, momentum=0.1, affine=True, track_running_stats=True)
              (2): ReLU(inplace)
            )
          )
          (2): AvgPool2d(kernel_size=2, stride=2, padding=0)
        )
        (linear): Linear(in_features=128, out_features=10, bias=True)
      )
      (5): ClassifierModule(
        (m): Sequential(
          (0): ConvBasic(
            (net): Sequential(
              (0): Conv2d(260, 128, kernel_size=(3, 3), stride=(2, 2), padding=(1, 1), bias=False)
              (1): BatchNorm2d(128, eps=1e-05, momentum=0.1, affine=True, track_running_stats=True)
              (2): ReLU(inplace)
            )
          )
          (1): ConvBasic(
            (net): Sequential(
              (0): Conv2d(128, 128, kernel_size=(3, 3), stride=(2, 2), padding=(1, 1), bias=False)
              (1): BatchNorm2d(128, eps=1e-05, momentum=0.1, affine=True, track_running_stats=True)
              (2): ReLU(inplace)
            )
          )
          (2): AvgPool2d(kernel_size=2, stride=2, padding=0)
        )
        (linear): Linear(in_features=128, out_features=10, bias=True)
      )
      (6): ClassifierModule(
        (m): Sequential(
          (0): ConvBasic(
            (net): Sequential(
              (0): Conv2d(308, 128, kernel_size=(3, 3), stride=(2, 2), padding=(1, 1), bias=False)
              (1): BatchNorm2d(128, eps=1e-05, momentum=0.1, affine=True, track_running_stats=True)
              (2): ReLU(inplace)
            )
          )
          (1): ConvBasic(
            (net): Sequential(
              (0): Conv2d(128, 128, kernel_size=(3, 3), stride=(2, 2), padding=(1, 1), bias=False)
              (1): BatchNorm2d(128, eps=1e-05, momentum=0.1, affine=True, track_running_stats=True)
              (2): ReLU(inplace)
            )
          )
          (2): AvgPool2d(kernel_size=2, stride=2, padding=0)
        )
        (linear): Linear(in_features=128, out_features=10, bias=True)
      )
      (7): ClassifierModule(
        (m): Sequential(
          (0): ConvBasic(
            (net): Sequential(
              (0): Conv2d(188, 128, kernel_size=(3, 3), stride=(2, 2), padding=(1, 1), bias=False)
              (1): BatchNorm2d(128, eps=1e-05, momentum=0.1, affine=True, track_running_stats=True)
              (2): ReLU(inplace)
            )
          )
          (1): ConvBasic(
            (net): Sequential(
              (0): Conv2d(128, 128, kernel_size=(3, 3), stride=(2, 2), padding=(1, 1), bias=False)
              (1): BatchNorm2d(128, eps=1e-05, momentum=0.1, affine=True, track_running_stats=True)
              (2): ReLU(inplace)
            )
          )
          (2): AvgPool2d(kernel_size=2, stride=2, padding=0)
        )
        (linear): Linear(in_features=128, out_features=10, bias=True)
      )
      (8): ClassifierModule(
        (m): Sequential(
          (0): ConvBasic(
            (net): Sequential(
              (0): Conv2d(236, 128, kernel_size=(3, 3), stride=(2, 2), padding=(1, 1), bias=False)
              (1): BatchNorm2d(128, eps=1e-05, momentum=0.1, affine=True, track_running_stats=True)
              (2): ReLU(inplace)
            )
          )
          (1): ConvBasic(
            (net): Sequential(
              (0): Conv2d(128, 128, kernel_size=(3, 3), stride=(2, 2), padding=(1, 1), bias=False)
              (1): BatchNorm2d(128, eps=1e-05, momentum=0.1, affine=True, track_running_stats=True)
              (2): ReLU(inplace)
            )
          )
          (2): AvgPool2d(kernel_size=2, stride=2, padding=0)
        )
        (linear): Linear(in_features=128, out_features=10, bias=True)
      )
      (9): ClassifierModule(
        (m): Sequential(
          (0): ConvBasic(
            (net): Sequential(
              (0): Conv2d(284, 128, kernel_size=(3, 3), stride=(2, 2), padding=(1, 1), bias=False)
              (1): BatchNorm2d(128, eps=1e-05, momentum=0.1, affine=True, track_running_stats=True)
              (2): ReLU(inplace)
            )
          )
          (1): ConvBasic(
            (net): Sequential(
              (0): Conv2d(128, 128, kernel_size=(3, 3), stride=(2, 2), padding=(1, 1), bias=False)
              (1): BatchNorm2d(128, eps=1e-05, momentum=0.1, affine=True, track_running_stats=True)
              (2): ReLU(inplace)
            )
          )
          (2): AvgPool2d(kernel_size=2, stride=2, padding=0)
        )
        (linear): Linear(in_features=128, out_features=10, bias=True)
      )
    )
  )
)
# of params: 4839544
